_________________________________________________________________
Layer (type)                 Output Shape              Param #   
=================================================================
input_1 (InputLayer)         (None, 512, 512, 3)       0         
_________________________________________________________________
block1_conv1 (Conv2D)        (None, 512, 512, 64)      1792      
_________________________________________________________________
block1_conv2 (Conv2D)        (None, 512, 512, 64)      36928     
_________________________________________________________________
block1_pool (MaxPooling2D)   (None, 256, 256, 64)      0         
_________________________________________________________________
block2_conv1 (Conv2D)        (None, 256, 256, 128)     73856     
_________________________________________________________________
block2_conv2 (Conv2D)        (None, 256, 256, 128)     147584    
_________________________________________________________________
block2_pool (MaxPooling2D)   (None, 128, 128, 128)     0         
_________________________________________________________________
block3_conv1 (Conv2D)        (None, 128, 128, 256)     295168    
_________________________________________________________________
block3_conv2 (Conv2D)        (None, 128, 128, 256)     590080    
_________________________________________________________________
block3_conv3 (Conv2D)        (None, 128, 128, 256)     590080    
_________________________________________________________________
block3_pool (MaxPooling2D)   (None, 64, 64, 256)       0         
_________________________________________________________________
block4_conv1 (Conv2D)        (None, 64, 64, 512)       1180160   
_________________________________________________________________
block4_conv2 (Conv2D)        (None, 64, 64, 512)       2359808   
_________________________________________________________________
block4_conv3 (Conv2D)        (None, 64, 64, 512)       2359808   
_________________________________________________________________
block4_pool (MaxPooling2D)   (None, 32, 32, 512)       0         
_________________________________________________________________
block5_conv1 (Conv2D)        (None, 32, 32, 512)       2359808   
_________________________________________________________________
block5_conv2 (Conv2D)        (None, 32, 32, 512)       2359808   
_________________________________________________________________
block5_conv3 (Conv2D)        (None, 32, 32, 512)       2359808   
_________________________________________________________________
block5_pool (MaxPooling2D)   (None, 16, 16, 512)       0         
_________________________________________________________________
fc1 (Conv2D)                 (None, 16, 16, 4096)      102764544 
_________________________________________________________________
dropout_1 (Dropout)          (None, 16, 16, 4096)      0         
_________________________________________________________________
fc2 (Conv2D)                 (None, 16, 16, 4096)      16781312  
_________________________________________________________________
dropout_2 (Dropout)          (None, 16, 16, 4096)      0         
_________________________________________________________________
conv2d_1 (Conv2D)            (None, 16, 16, 21)        86037     
_________________________________________________________________
bilinear_up_sampling2d_1 (Bi (None, 512, 512, 21)      0         
=================================================================
Total params: 134,346,581
Trainable params: 134,346,581
Non-trainable params: 0
_________________________________________________________________
Epoch 1/100

  16/2758 [..............................] - ETA: 40:34 - loss: 1.4418 - sparse_accuracy_ignoring_last_label: 0.7248
  32/2758 [..............................] - ETA: 23:17 - loss: 1.4822 - sparse_accuracy_ignoring_last_label: 0.7147
…
